vhdl/current_test/npy/quant_weight_int.npy (npy, 1280 bytes, 1 tensors)

array i1 [16, 8, 3, 3]
0	0xf1	-15
1	0xeb	-21
2	0x1e	30
3	0x01	1
4	0xfb	-5
5	0x16	22
6	0xfb	-5
7	0xf2	-14
8	0xf8	-8
9	0x18	24
10	0x15	21
11	0x0d	13
12	0x00	0
13	0x19	25
14	0x17	23
15	0xe7	-25
16	0x19	25
17	0x09	9
18	0x09	9
19	0x26	38
20	0x33	51
21	0x04	4
22	0xfc	-4
23	0x21	33
24	0xf0	-16
25	0xfc	-4
26	0x05	5
27	0xeb	-21
28	0xf9	-7
29	0xf2	-14
30	0xc7	-57
31	0xea	-22
32	0xd8	-40
33	0xf0	-16
34	0xed	-19
35	0xdb	-37
36	0x03	3
37	0xfc	-4
38	0x03	3
39	0xfc	-4
40	0x04	4
41	0xfe	-2
42	0xea	-22
43	0xfb	-5
44	0x05	5
45	0x16	22
46	0xfb	-5
47	0x1c	28
48	0x37	55
49	0x1d	29
50	0x34	52
51	0x00	0
52	0x05	5
53	0x04	4
54	0x26	38
55	0x0d	13
56	0x22	34
57	0x06	6
58	0x07	7
59	0xf6	-10
60	0xd7	-41
61	0xef	-17
62	0xb2	-78
63	0x06	6
64	0xff	-1
65	0x14	20
66	0xfa	-6
67	0x0a	10
68	0xfe	-2
69	0xde	-34
70	0x08	8
71	0x10	16
72	0x03	3
73	0x00	0
74	0x02	2
75	0xf8	-8
76	0x19	25
77	0x03	3
78	0xfd	-3
79	0x34	52
80	0x06	6
81	0x00	0
82	0xf3	-13
83	0xed	-19
84	0x01	1
85	0x07	7
86	0x10	16
87	0xe8	-24
88	0x24	36
89	0x6b	107
90	0x12	18
91	0xfa	-6
92	0xff	-1
93	0xf3	-13
94	0xf7	-9
95	0xed	-19
96	0xe7	-25
97	0xf2	-14
98	0x0b	11
99	0x11	17
100	0x04	4
101	0x00	0
102	0xfa	-6
103	0xfc	-4
104	0x03	3
105	0x08	8
106	0xe8	-24
107	0x02	2
108	0x03	3
109	0x02	2
110	0x01	1
111	0x01	1
112	0x00	0
113	0x02	2
114	0xf6	-10
115	0xfd	-3
116	0x0c	12
117	0x04	4
118	0xfd	-3
119	0xf9	-7
120	0x12	18
121	0x1e	30
122	0xf7	-9
123	0x17	23
124	0x37	55
125	0x18	24
126	0xf9	-7
127	0xf7	-9
128	0xf7	-9
129	0xfe	-2
130	0x06	6
131	0xe9	-23
132	0xdb	-37
133	0x1a	26
134	0xf1	-15
135	0x08	8
136	0xf0	-16
137	0x03	3
138	0x14	20
139	0xef	-17
140	0x15	21
141	0xfa	-6
142	0xf3	-13
143	0x40	64
144	0x18	24
145	0x0a	10
146	0xf5	-11
147	0x09	9
148	0x09	9
149	0xfc	-4
150	0x0d	13
151	0x25	37
152	0x10	16
153	0x15	21
154	0x17	23
155	0x0b	11
156	0xf6	-10
157	0xf9	-7
158	0x25	37
159	0xfb	-5
160	0x1d	29
161	0x27	39
162	0xf2	-14
163	0x12	18
164	0x04	4
165	0x38	56
166	0x0f	15
167	0xee	-18
168	0x36	54
169	0x12	18
170	0xcc	-52
171	0xdc	-36
172	0xf8	-8
173	0xfa	-6
174	0x00	0
175	0x01	1
176	0x07	7
177	0xfb	-5
178	0xfa	-6
179	0xfc	-4
180	0xfd	-3
181	0xfb	-5
182	0xf7	-9
183	0xf9	-7
184	0xf8	-8
185	0x05	5
186	0xee	-18
187	0xf7	-9
188	0xff	-1
189	0xfd	-3
190	0x14	20
191	0x1c	28
192	0xe7	-25
193	0x09	9
194	0xfc	-4
195	0x10	16
196	0x23	35
197	0x17	23
198	0x0a	10
199	0x02	2
200	0xf6	-10
201	0xf9	-7
202	0xfa	-6
203	0x06	6
204	0xf6	-10
205	0x0d	13
206	0x18	24
207	0x10	16
208	0x4c	76
209	0x29	41
210	0x20	32
211	0x41	65
212	0xf5	-11
213	0x0a	10
214	0x15	21
215	0x5b	91
216	0x0b	11
217	0xcf	-49
218	0x1b	27
219	0x16	22
220	0xfd	-3
221	0xf6	-10
222	0x16	22
223	0xfe	-2
224	0xef	-17
225	0x10	16
226	0x2a	42
227	0xda	-38
228	0x09	9
229	0x18	24
230	0xfa	-6
231	0x03	3
232	0xf9	-7
233	0xf4	-12
234	0xe8	-24
235	0xb0	-80
236	0x2d	45
237	0x02	2
238	0xf5	-11
239	0xf9	-7
240	0x0c	12
241	0x01	1
242	0xce	-50
243	0xff	-1
244	0x1d	29
245	0xe4	-28
246	0xf8	-8
247	0x0b	11
248	0xfe	-2
249	0xec	-20
250	0xf8	-8
251	0xf9	-7
252	0x09	9
253	0x07	7
254	0xf8	-8
255	0x04	4
